diabetes_classifier_model.pth (torch, 4668 bytes, 6 tensors)

fc1.weight f4 [16, 8]
-0.9191686 0.20748703 0.34566742 0.1808684 -0.14524506 0.15766878 -0.7171127 0.081122674
-0.33326474 -0.35094756 -0.26296425 0.16072324 0.023087144 -0.10247311 0.14059636 -0.35327232
-0.4809247 -0.112160906 -0.3314353 0.37015107 0.1305914 0.06475848 -0.65904486 0.372844
-0.05998112 0.05926078 -0.40632677 0.085524485 0.32679498 0.16380866 -0.9270527 0.26961765
-0.30813092 -0.30102614 -0.22297178 0.00075268745 -0.13685179 0.08967352 -0.14543188 0.05124834
-0.1943707 0.029977154 0.21774748 -0.2544032 0.16504733 -0.007869586 -1.6473602 -0.3828031
0.0299241 0.19698726 0.24158067 -0.01697059 -0.4271526 0.35319325 2.0583217 -0.08457604
1.2334946 0.07695487 0.093916304 -0.33506155 -0.49713862 0.6779174 4.365911 0.26426506
0.12992145 -0.30316278 0.13908683 0.12970892 0.3806598 -0.29432324 -0.85081804 0.4080264
-0.7936376 0.021681305 -0.24759525 -0.24117407 -0.24866405 0.5002155 2.681538 -0.28526145
0.93895537 0.16669454 -0.06550417 -0.11340027 -0.053511266 0.09808637 -0.42856786 -0.43936098
-0.3136102 -0.20681596 -0.04447069 0.15256327 0.2777185 0.25694412 1.660203 -0.10821374
0.78413236 -0.33610892 -0.28371865 -0.34624073 0.3158456 -0.10417415 1.0651459 0.41200158
0.62097704 -0.14623421 -0.117561094 0.08979619 0.096667536 0.013993349 2.334298 0.25274166
0.012987748 -0.23640747 0.24587418 -0.24551605 0.32848898 -0.17870659 -1.2979403 -0.39013258
-0.09763142 0.16719998 -0.12155573 -0.059219535 -0.045465842 -0.3328552 1.9020536 0.4914835
00000000: a24e 6bbf 7b77 543e 52fb b03e 9135 393e
00000010: 1fbb 14be ed73 213e b394 37bf a523 a63d
00000020: ada1 aabe 66af b3be 40a3 86be a294 243e
00000030: 4021 bd3c 6cdd d1bd 7ef8 0f3e 1ce0 b4be
00000040: c33b f6be 9eb4 e5bd e3b1 a9be 7184 bd3e
00000050: c1b9 053e 18a0 843d 2ab7 28bf 69e5 be3e
00000060: c3ae 75bd 6fbb 723d 100a d0be 7627 af3d
00000070: ac51 a73e 75bd 273e 5353 6dbf 530b 8a3e
00000080: 56c3 9dbe 1920 9abe b752 64be 0050 453a
00000090: e022 0cbe c0a6 b73d 18ec 14be c8e9 513d
000000a0: 1d09 47be a692 f53c 32f9 5e3e 2341 82be
000000b0: 2b02 293e 70ef 00bc b3dc d2bf c5fe c3be
000000c0: 6323 f53c 07b7 493e ec60 773e e805 8bbc
000000d0: bfb3 dabe bfd5 b43e 8bbb 0340 3436 adbd
000000e0: 27e3 9d3f 849a 9d3d 3157 c03d 308d abbe
000000f0: f488 febe ff8b 2d3f 8bb5 8b40 c04d 873e
00000100: 210a 053e 2738 9bbe c76c 0e3e 6ad2 043e
00000110: d7e5 c23e 89b1 96be 36cf 59bf d6e8 d03e
00000120: d52b 4bbf fe9c b13c 9c89 7dbe 56f6 76be
00000130: caa1 7ebe 1f0e 003f 529e 2b40 ca0d 92be
00000140: 615f 703f f9b1 2a3e 0d27 86bd 673e e8bd
00000150: a12e 5bbd 82e1 c83d 3f6d dbbe ecf3 e0be
00000160: 8491 a0be 90c7 53be e626 36bd 8c39 1c3e
00000170: 1f31 8e3e 2e8e 833e 8881 d43f 2a9f ddbd
00000180: e6bc 483f 7816 acbe 9243 91be 7746 b1be
00000190: 84b6 a13e 4259 d5bd b356 883f dff1 d23e
000001a0: 5af8 1e3f 6cbe 15be dfc3 f0bd 11e7 b73d
000001b0: a1f9 c53d 5c44 653c 2365 1540 5b67 813e
000001c0: 90ca 543c cd14 72be 71c6 7b3e 8f68 7bbe
000001d0: b52f a83e dcfe 36be e822 a6bf 75bf c7be
000001e0: fbf2 c7bd 7936 2b3e 36f2 f8bd 2f90 72bd
000001f0: 643a 3abd ff6b aabe 7e76 f33f baa3 fb3e

fc1.bias f4 [16]
-0.36523485 -0.28646505 0.8084951 -0.7439895 -0.29242444 2.143762 1.1435144 -2.1419322
1.5656968 -2.100416 -2.7648187 -1.5883 1.1012708 -1.3353999 -1.1011556 -1.1373239
00000000: 1000 bbbe 8cab 92be 89f9 4e3f 1976 3ebf
00000010: a8b8 95be 6633 0940 ae5e 923f 6b15 09c0
00000020: c168 c83f 376d 06c0 caf2 30c0 6a4d cbbf
00000030: 71f6 8c3f 62ee aabf abf2 8cbf d493 91bf

fc2.weight f4 [16, 16]
-0.060174603 -0.2258724 0.06050897 -0.14649324 0.22718716 0.16377443 0.21070911 0.279195
0.26994413 0.37311247 -0.86621684 0.113216795 -0.10311127 -0.07324314 0.28167439 -0.17721136
-0.20402965 0.04766798 0.21884668 0.11189507 0.12473637 -0.14447147 -0.5720141 0.46345115
0.16194929 -2.1323974 0.6047564 0.1319399 -0.14735448 -0.054156017 0.009769916 0.28434545
-0.07182737 -0.21257102 -0.31868178 0.7044139 0.043269306 -0.31649217 0.14719917 0.07599101
-0.443918 -0.50660515 -0.93751895 -1.5554072 -0.16862628 -3.1104193 0.103192374 -0.1792995
0.013760615 -0.05800405 1.0361016 0.14675817 -0.13166946 -0.003255542 0.14102226 -0.2127315
0.19688201 -0.3102855 0.31488547 -0.3213043 -0.32072967 -0.3627173 -0.6495185 0.10015949
-0.15475047 0.23926029 1.6121854 -0.3730379 -0.015247941 -0.60171235 0.19951612 0.17194104
-0.8950972 0.31199 -0.01016458 -0.28096232 0.22541979 2.2962143 -0.1609858 0.2746215
-0.20855567 -0.207044 -0.08270728 0.112504825 0.23643678 -0.24835221 -0.17099969 -0.26124367
0.1464999 0.21881863 -0.08178881 -0.02287388 0.114481844 -0.31674072 -0.16790083 -0.009477883
-0.04989508 -0.21184999 0.08466457 0.16230558 0.22423822 -0.119580746 -1.2897261 0.8598285
0.17563127 -0.5406116 0.9652668 -0.23624024 -0.27793896 0.10096424 0.07397066 0.07898724
-0.164987 0.051882297 -0.07540175 -0.23972806 0.21592149 0.056755573 -0.03940454 -0.10532436
-0.14260426 0.244564 -0.12938848 -0.22789177 -0.009672821 0.16888893 0.21909887 -0.08031571
-0.22225653 -0.050284833 0.79571664 0.25688607 0.09013978 0.34867984 -0.13278481 0.30839327
-0.5520004 -0.32736218 0.11389773 -0.53539765 -0.11813453 -1.8765733 -0.33249855 0.084981486
-0.21055657 0.19136015 -0.1230736 0.253379 0.08477697 -0.22070274 -0.09870274 0.069625184
0.075463235 -0.3039714 -1.2875555 0.115141794 0.055245996 -0.089658804 0.21154605 0.48567855
0.3987659 -0.1471855 -0.026510261 0.14241257 -0.20033821 0.030982412 -0.3871799 -0.24539083
-0.21454239 0.026685512 -0.59429234 0.094786055 -0.15891354 0.16209789 -0.26956353 0.1311721
0.020872012 0.019207478 -0.085857086 0.0325339 -0.032562822 0.34063882 -0.091223486 -0.1918871
0.020456783 -0.046785355 -0.65987843 -0.3391865 0.039742675 -0.34509042 0.024590554 -0.5157069
-0.31876653 0.075927734 0.7392065 -0.06799151 -0.070124805 0.09479623 0.06469845 0.20847712
0.505051 -0.36617017 0.062334947 -0.53500587 0.6609047 -1.0157627 -1.4634169 0.14055209
-0.120582476 0.08474356 0.2129176 -0.10803629 0.004727602 -0.06663219 0.11144515 0.10758157
0.37792012 -2.1400313 -0.37187818 -0.21201797 0.19253233 -0.7686725 -0.63639987 0.1704
-0.19964893 -0.11973122 -0.023430277 0.16659337 -0.058588088 -0.050109066 0.28061652 -0.07158799
0.048361734 0.48772585 0.75213635 -0.010091686 0.11778478 0.39785713 -0.27727762 -0.2373601
0.22689752 0.24859878 0.2993396 -0.062355045 0.1587534 -0.03396421 -0.22948375 -0.07131149
0.1739188 -0.18118112 0.3551331 0.2417231 -0.12399227 0.1467835 0.03117643 0.17981032
00000000: a579 76bd 184b 67be 41d8 773d 5302 16be
00000010: c0a3 683e 7cb4 273e 21c4 573e a6f2 8e3e
00000020: 1e36 8a3e 9908 bf3e 63c0 5dbf 35de e73d
00000030: 002c d3bd 8000 96bd a037 903e e576 35be
00000040: 26ed 50be 803f 433d 5819 603e 3e29 e53d
00000050: c875 ff3d 54f0 13be 846f 12bf 7849 ed3e
00000060: 09d6 253e 3379 08c0 51d1 1a3f 411b 073e
00000070: 18e4 16be b3d2 5dbd ff11 203c ba95 913e
00000080: 3a1a 93bd 38ac 59be 422a a3be 7854 343f
00000090: 283b 313d 430b a2be 61bb 163e 2da1 9b3d
000000a0: 3849 e3be e0b0 01bf 3e01 70bf 9517 c7bf
000000b0: 5eac 2cbe 1c11 47c0 8656 d33d 4a9a 37be
000000c0: 3474 613c a895 6dbd fa9e 843f c647 163e
000000d0: 5cd4 06be ee5a 55bb 2468 103e 49d6 59be
000000e0: 709b 493e bedd 9ebe ab38 a13e ff81 a4be
000000f0: ae36 a4be 15b6 b9be d846 26bf 6b20 cd3d
00000100: e876 1ebe a600 753e 175c ce3f d3fe bebe
00000110: 80d2 79bc d209 1abf f44d 4c3e 5011 303e
00000120: 1725 65bf 27bd 9f3e 5789 26bc 4bda 8fbe
00000130: 72d4 663e 2df5 1240 76d9 24be 309b 8c3e
00000140: 9e8f 55be 5803 54be 6f62 a9bd ee68 e63d
00000150: 7c1c 723e 0b50 7ebe 8b1a 2fbe bbc1 85be
00000160: 1204 163e fe11 603e e480 a7bd 0162 bbbc
00000170: 7575 ea3d d72b a2be 32ee 2bbe 1f49 1bbc
00000180: c95e 4cbd 34ef 58be 9e64 ad3d 6f33 263e
00000190: b49e 653e c0e6 f4bd bf15 a5bf b81d 5c3f
000001a0: afd8 333e 8665 0abf ba1b 773f f6e8 71be
000001b0: 044e 8ebe 57c6 ce3d ee7d 973d 10c4 a13d
000001c0: 5af2 28be 8882 543d 3c6c 9abd 467b 75be
000001d0: 861a 5d3e 8878 683d a866 21bd 4cb4 d7bd
000001e0: da06 12be fc6e 7a3e 6a7e 04be 765c 69be
000001f0: c07a 1ebc 38f1 2c3e 745b 603e 907c a4bd
00000200: 3797 63be 78f7 4dbd 16b4 4b3f 9286 833e
00000210: 349b b83d 2a86 b23e bef8 07be b9e5 9d3e
00000220: e64f 0dbf 049c a7be 3743 e93d d20f 09bf
00000230: 84f0 f1bd 8e33 f0bf 403d aabe c60a ae3d
00000240: 249c 57be eaf3 433e 030e fcbd e4ba 813e
00000250: 8c9f ad3d e6ff 61be aa24 cabd a697 8e3d
00000260: 788c 9a3d 24a2 9bbe 9ece a4bf 76cf eb3d
00000270: a049 623d 099f b7bd 879f 583e dcaa f83e
00000280: 0b2b cc3e ccb7 16be 0c2c d9bc 9ad4 113e
00000290: 7625 4dbe d4ce fd3c 723c c6be bc47 7bbe
000002a0: 00b1 5bbe 939b da3c 8b23 18bf 311f c23d
000002b0: 3bba 22be fdfc 253e 3b04 8abe fb51 063e
000002c0: c8fb aa3c 0059 9d3c d7d5 afbd 4442 053d
000002d0: 9860 05bd 3668 ae3e 61d3 babd 0d7e 44be
000002e0: fc94 a73c 00a2 3fbd cbed 28bf daa9 adbe
000002f0: 37c9 223d b1af b0be 2172 c93c 5e05 04bf
00000300: 5e35 a3be 0080 9b3d a33c 3d3f 223f 8bbd
00000310: 989d 8fbd 8724 c23d 9f80 843d 077b 553e
00000320: 064b 013f a87a bbbe ee52 7f3d 25f6 08bf
00000330: 0d31 293f 8304 82bf 3f51 bbbf e3ec 0f3e
00000340: f2f3 f6bd 088e ad3d 1207 5a3e 2142 ddbd
00000350: 00ea 9a3b 7576 88bd 5b3d e43d ba53 dc3d
00000360: bf7e c13e 46f6 08c0 d166 bebe 3d1b 59be
00000370: 3227 453e b9c7 44bf 1aeb 22bf 567d 2e3e
00000380: c570 4cbe a435 f5bd daf0 bfbc 7497 2a3e
00000390: 10fa 6fbd 2a3f 4dbd f8ac 8f3e b99c 92bd
000003a0: f416 463d 34b7 f93e 028c 403f 9957 25bc
000003b0: 2639 f13d eeb3 cb3e 55f7 8dbe 870e 73be
000003c0: d357 683e ae90 7e3e 0a43 993e 0168 7fbd
000003d0: 4090 223e 0e1e 0bbd cafd 6abe c20b 92bd
000003e0: c517 323e 8b87 39be 01d4 b53e 4386 773e
000003f0: a9ef fdbd 6a4e 163e b665 ff3c 3220 383e

fc2.bias f4 [16]
0.079687946 -0.4386641 1.5687152 1.9146342 -1.178615 -0.24048193 -1.1601193 -0.025445223
0.91158 0.79965806 -1.3374287 1.8796582 0.82191575 1.1148432 -1.1341637 0.6858615
00000000: 6f33 a33d 9598 e0be a9cb c83f bc12 f53f
00000010: dbdc 96bf e540 76be ca7e 94bf 8072 d0bc
00000020: 4f5d 693f 64b6 4c3f dd30 abbf a498 f03f
00000030: 1269 523f 2fb3 8e3f 472c 91bf 9f94 2f3f

out.weight f4 [2, 16]
0.13763304 -0.2661607 0.21512601 0.12402104 -0.42307594 -0.17959327 -0.57927215 -0.15358469
-1.7152746e-05 0.35317865 -0.43248582 0.89554214 0.4779799 0.20966312 -0.32523313 0.12539232
0.29131338 0.055922206 -0.49685296 -0.43721557 0.37490022 -0.22076689 0.48497674 0.06813756
-0.3678398 -0.03712142 0.4419565 -0.65233743 -0.3215568 -0.5791498 0.33918953 -0.11734573
00000000: adef 0c3e 3746 88be fe49 5c3e befe fd3d
00000010: 699d d8be 4ce7 37be 2e4b 14bf 4e45 1dbe
00000020: 3ee3 8fb7 d5d3 b43e c86e ddbe 4042 653f
00000030: c8b9 f43e eeb1 563e f584 a6be d866 003e
00000040: 0727 953e af0e 653d 8363 febe b8da dfbe
00000050: ecf2 bf3e b710 62be df4e f83e b48b 8b3d
00000060: 8055 bcbe a10c 18bd 1f48 e23e 96ff 26bf
00000070: 18a3 a4be 2943 14bf 40aa ad3e f552 f0bd

out.bias f4 [2]
0.9218917 -0.8597882
00000000: 1801 6c3f 141b 5cbf
