diabetes_classifier_model.pth (torch, 4156 bytes, 6 tensors)

fc1.weight f4 [12, 8]
00000000: dc25 d83b 891b 67bd e594 e7bd c956 393d
00000010: cef2 a9be 330b ffbd a67c db3e fafa 2d3f
00000020: ada1 aabe 66af b3be 40a3 86be a294 243e
00000030: 4021 bd3c 6cdd d1bd 7ef8 0f3e 1ce0 b4be
00000040: fed2 51bc 9f8c 88be fe1a a5be a64b bf3b
00000050: ce18 913d 5ada d83b 070b f83c 5a66 703d
00000060: c3c5 60bf c8a7 443d 7050 8ebe 57d9 5d3a
00000070: 65da 883e e357 863e 7ce8 d6be 64f0 793e
00000080: 56c3 9dbe 1920 9abe b752 64be 0050 453a
00000090: e022 0cbe c0a6 b73d 18ec 14be c8e9 513d
000000a0: 4085 783c 15d0 45be 5772 01bd 0f11 6cbe
000000b0: 6a53 403d ed0a d33d 9e9d 01bc a094 b1bd
000000c0: 6fe9 35bf cb50 1c3e 9eb2 e73e fde5 84bd
000000d0: 0100 b1be 40c3 773e e5f1 a53f af94 53be
000000e0: 561b 4d3d 093e 903e cc74 e93d 834e 213e
000000f0: f342 30bf 0000 8a3e d7b9 9b3e 1ea1 dabd
00000100: a7c8 34be cf0e b6be a6b3 4fbb a567 693e
00000110: cec6 603e dd43 92be 3849 84be 8d1b 813e
00000120: 037d 9d3e b724 a43d ec52 9dbd 4cab ab3c
00000130: ed2c 19bf a150 7e3e ccb6 0a40 31dc 4abe
00000140: 71bf c43f 35c7 293e 2a3b 6bbd d478 38bd
00000150: 19a1 89bd 358d 093e 1577 6e40 fdca 9fbe
00000160: 4c46 40be fb6d b3be 4006 b23d cef4 8cbd
00000170: 92ba 783e 4acb 6abd 1261 8d3f 5a91 0bbf
0.00659631 -0.056422744 -0.11307696 0.04524878 -0.33193058 -0.12453308 0.42868537 0.67961085
-0.33326474 -0.35094756 -0.26296425 0.16072324 0.023087144 -0.10247311 0.14059636 -0.35327232
-0.012806652 -0.26669785 -0.32247156 0.0058378754 0.07084809 0.0066178264 0.030278696 0.05869136
-0.8780176 0.04801157 -0.27795744 0.0008462867 0.26729122 0.26238927 -0.41974247 0.24408108
-0.30813092 -0.30102614 -0.22297178 0.00075268745 -0.13685179 0.08967352 -0.14543188 0.05124834
0.015168488 -0.19317658 -0.031603184 -0.23053382 0.04695455 0.10304818 -0.007911114 -0.08670926
-0.71059316 0.15265195 0.45253462 -0.06489179 -0.34570315 0.24195576 1.2964445 -0.20662187
0.050074898 0.2817233 0.1139923 0.15752606 -0.68852156 0.26953125 0.30415222 -0.10675262
-0.17654668 -0.35558173 -0.0031692772 0.22793444 0.21950838 -0.285674 -0.2583711 0.25216332
0.3075944 0.08014815 -0.07681832 0.020955704 -0.59834176 0.24835445 2.167407 -0.19810559
1.5370923 0.16579898 -0.05742947 -0.045037106 -0.0672018 0.13432772 3.7260182 -0.31209555
-0.18776816 -0.35044846 0.08692598 -0.0688263 0.24289921 -0.057322778 1.1045249 -0.54518664

fc1.bias f4 [12]
00000000: f4be 1ebe a68e a9be 9692 dcbe 0053 94bf
00000010: 1d3f a53e 9e3d 6fbe 4193 9f3c e3bb 3a3e
00000020: 7b81 dbbb ee86 e0bf b152 3dc0 d901 4f3d
-0.1550253 -0.33116645 -0.43080586 -1.158783 0.32274714 -0.23363349 0.019479396 0.18235736
-0.006698785 -1.7541177 -2.958172 0.05053887

fc2.weight f4 [14, 12]
00000000: 9192 43bd d09a f03c 1459 763e 64dd 9a3d
00000010: 6e2e ecbd cbbe 21be e264 a3bd 1435 a6be
00000020: a95b f23d 9409 3cbf c8c9 863f 8510 12be
00000030: 3b68 b53e a06d 2e3e 40f0 b2bc 7e0f ea3d
00000040: b0ca 5dbd d5e0 00bd d3e0 09bc ccf0 0a3e
00000050: 9ac6 9bbe 553a bfbe 0109 b5bd 0010 92bd
00000060: 33c1 893d 0eb7 063e 105e 0f3d 3526 b53d
00000070: 9448 603e 5025 5cbc 37ce 78be 741e dc3e
00000080: 12c5 603e 3fe2 68be e247 a9be 490e 143c
00000090: 5753 6ebd 8a89 85be bbbc 1b3e aa52 f8bd
000000a0: 8850 863e cf72 0c3e e185 bd3e d661 5c3e
000000b0: adb1 823e 32fa 433d 09a1 013d 7acb 543e
000000c0: 1971 c4be 66bb 833e b4d4 143e 0c81 f1bd
000000d0: c053 3ebe 6b36 1e3e ff92 603e 9161 b03c
000000e0: 7fc3 a83e bcf8 583e 37c6 14bf 36e8 21be
000000f0: 488a 4f3e 4dce 88be 6ff7 923b 69da 263e
00000100: e61a c4bd 2de2 163d efad 043e 6e51 fa3b
00000110: f352 66bb 11e9 a2be c1df 8bbd 49cb 823d
00000120: addb 15bc 0325 7cbe 34b2 833e 6cb8 83bd
00000130: 4631 94bd 2b57 3bbe 0b01 95be 3b52 f3bc
00000140: ce62 47be b172 a93d 026a 34bd 0445 80bd
00000150: 48e4 05bd 662b 89bd 7c9f 543e 2c1b aa3d
00000160: 0fb0 1bbe c8ee 943e c143 ab3e 8627 6bbe
00000170: 1416 77bd ca35 943e 46d5 bcbe f9e3 01bf
00000180: 6eeb ab3e 8dd5 2abe a6b5 51be ce67 fd3c
00000190: 3495 2bbe 4780 373e d611 6cbf 25f5 e8bd
000001a0: 91e8 88be 8ff4 283f 8933 093f c227 9ebd
000001b0: 2b2d 33be 1017 76be e8d0 6d3d aa4a 7cbe
000001c0: 0a45 853e ae2e d1bd 0511 9bbe 65fe 153e
000001d0: c7ce 38bd c4cf 74be 6093 56bd c1c2 583e
000001e0: 6cdf ac3e f656 87be 5f7c 56be 7575 acbe
000001f0: 26b7 493e bca1 303e bd4e babd 0492 8fbc
00000200: 6547 e63d a117 35be afa1 a0bf c66b 82bc
00000210: 9631 7ebe 877e 7abe 2f16 473d 8dc9 2f3e
00000220: 3692 843e 14e4 14be c95a c1be 7fb3 ffbd
00000230: 4664 573d 4923 44be 631c 9dbd cbba 84be
00000240: 3abc 14be 8084 6a3e 3131 663e bd6f 30be
00000250: 3415 43be 1d00 4b3d 65f5 0ebb 0d08 54be
00000260: 21da 683e 9437 863d ac5e 3abd 8a64 0abe
00000270: ec97 24be 7e96 903e 188e b7bd 56ff 09be
00000280: 20ff 36bc 4e59 8d3e 7a86 fe3d 72df b8bd
00000290: 80ba 34be 6263 18be 32df 6e3e 6301 f83e
-0.0477472 0.029370695 0.24057418 0.07561758 -0.11532293 -0.15795438 -0.07978226 -0.3246237
0.11833889 -0.73452115 1.0530329 -0.14264114 0.35431084 0.17034006 -0.021843076 0.11428736
-0.054148376 -0.031464417 -0.008415419 0.13568419 -0.30424958 -0.3734919 -0.08839608 -0.07131958
0.06726303 0.13155767 0.035001814 0.08845178 0.21902686 -0.01343663 -0.24297415 0.42991984
0.21950176 -0.22742556 -0.33062655 0.009036609 -0.058184948 -0.26081496 0.15208714 -0.12125142
0.26233315 0.13715671 0.37016204 0.21521696 0.2552618 0.047846027 0.031647716 0.20780745
-0.38367537 0.2572891 0.14534265 -0.11792192 -0.18586636 0.15450446 0.21931075 0.021530898
0.32961652 0.21188635 -0.5811495 -0.15811238 0.20267594 -0.26719895 0.004485063 0.16294254
-0.09575443 0.03683679 0.12956975 0.0076391017 -0.0035144656 -0.3181844 -0.06829787 0.0638643
-0.009146613 -0.24623494 0.25721896 -0.0643166 -0.07235961 -0.1829497 -0.29102358 -0.029702296
-0.19471285 0.08273829 -0.04404641 -0.06263164 -0.03268841 -0.06697731 0.20763963 0.08305964
-0.1520388 0.29088426 0.3345013 -0.22964296 -0.06032379 0.28947288 -0.36881465 -0.50738484
0.33578056 -0.16683026 -0.2047945 0.030933287 -0.16756135 0.17920028 -0.92214715 -0.113748826
-0.26739934 0.65998167 0.5359426 -0.07722427 -0.17497699 -0.24032235 0.058060557 -0.24637857
0.26029235 -0.102139816 -0.30286422 0.14647825 -0.045119073 -0.23907381 -0.05238664 0.21168043
0.33764207 -0.26433533 -0.20945881 -0.33683363 0.19698772 0.17249197 -0.090970494 -0.01752568
0.11244086 -0.17684795 -1.2549342 -0.015920531 -0.24823603 -0.24462329 0.04860514 0.1716673
0.258928 -0.1454013 -0.37764576 -0.12485408 0.052585863 -0.19154085 -0.0767143 -0.25923762
-0.14524928 0.22902107 0.22479703 -0.17230125 -0.19051057 0.049560655 -0.0021813747 -0.20706196
0.2273946 0.065535694 -0.045500442 -0.13514915 -0.16073579 0.28239816 -0.08962649 -0.13476309
-0.011169225 0.27607197 0.12427993 -0.09026994 -0.17649269 -0.14881662 0.2332733 0.48438558

fc2.bias f4 [14]
00000000: a0f3 2cbf 8910 ca3f b037 273f 66dc 1abf
00000010: 22f0 1b3f 7b28 b83e 50ba 9e3c ff04 5fbf
00000020: f8f4 89bf 1fa3 64be c1dd 6fbe 968f dbbe
00000030: d618 4cbe 8750 2840
-0.6755924 1.5786296 0.6531935 -0.6049255 0.6091329 0.35968384 0.01937595 -0.87117
-1.0777884 -0.22327851 -0.23424436 -0.42882985 -0.19931349 2.629915

out.weight f4 [2, 14]
00000000: eb06 14be 09af 8f3e 17ed 173e f592 9dbe
00000010: 70f6 b93e e4e9 283d 9f93 b4bc d49c cebe
00000020: afe3 95be efee d03d 6419 e0b8 b8cd afbd
00000030: cf33 8e3d 3ce2 2c3f fdb8 903e 8911 60be
00000040: def8 d1bd 016a 833e 6919 e9be 3577 383c
00000050: 25f8 43be 4532 4a3e 46bf 20bd 9371 103e
00000060: 6578 553e 6b39 3a3e 23c1 ebbd e642 25bf
-0.14455764 0.2806323 0.14836536 -0.30776182 0.3632083 0.04123868 -0.022043047 -0.40354025
-0.2927527 0.10201823 -0.00010685882 -0.085841596 0.069434755 0.67532706 0.28266135 -0.21881689
-0.10252546 0.25666812 -0.455272 0.01125889 -0.19137628 0.19745739 -0.039244913 0.14105825
0.20846708 0.18185966 -0.11511447 -0.64555204

out.bias f4 [2]
00000000: bdd7 6d3f 7322 87bf
0.92907315 -1.0557388
